mnist_mlp_small.onnx (onnx, 51660 bytes, 4 tensors)

network.0.weight f4 [16, 784]
0	0xbd44e1e9	-0.048067007
1	0xbd5df405	-0.054187793
2	0x3ad54862	0.0016272182
3	0xbd3ddbfd	-0.046352375
4	0xbc8c5e87	-0.017134918
5	0xbd39484d	-0.045234967
6	0xbc2ee213	-0.0106740175
7	0xbc0e5a15	-0.008688469
8	0xbcc545d9	-0.024081158
9	0xbd62e94f	-0.05539828
10	0xbcda3441	-0.026636245
11	0xbcad65b3	-0.021166658
12	0xbb77b507	-0.003779711
13	0xbd0d87d2	-0.034553356
14	0xbc665b10	-0.014059797
15	0x3c5840fc	0.013199087
16	0x3b98c9fc	0.0046627503
17	0x3c106a1a	0.008814359
18	0xbd207961	-0.039178256
19	0x3c1211e1	0.0089153955
20	0xbc5e30a1	-0.013561399
21	0xbc38b84b	-0.011274408
22	0xbce7a25d	-0.028275663
23	0xbc88b2fc	-0.016686909
24	0x3bf06b83	0.007337035
25	0xbd651849	-0.055931363
26	0xbd45f181	-0.04832602
27	0xbc8f0097	-0.017456336
28	0xbbfdc136	-0.00774398
29	0xbd4b8b49	-0.04969338
30	0x3c49a507	0.012307412
31	0xbc0685cd	-0.0082106115
32	0xbd42d456	-0.04756578
33	0xbcce01e8	-0.025147393
34	0x3c36f1f0	0.011166081
35	0xbd7394fd	-0.05946826
36	0xbac051a8	-0.0014672773
37	0xbd065b32	-0.032801814
38	0xbd071f12	-0.032988615
39	0xbd800fb1	-0.06252993
40	0xbc253df5	-0.0100855725
41	0xbcd060cf	-0.025436787
42	0xbd43f553	-0.04784138
43	0xbd2c75a4	-0.04210438
44	0xbc17ebef	-0.00927256
45	0xbd16187a	-0.036644436
46	0xbcab620f	-0.020920781
47	0xbd0dd9a9	-0.034631405
48	0xbd6fef32	-0.058577724
49	0xbc633574	-0.013867725
50	0xbd0d7a08	-0.034540206
51	0x3c4280f0	0.011871561
52	0xbc232280	-0.009956956
53	0x3b955d5e	0.0045582494
54	0xbd4b5785	-0.049644012
55	0xbc97f363	-0.018548673
56	0xbcc75cef	-0.024336306
57	0xbcbe01fd	-0.023194307
58	0x3bc3a00d	0.0059700073
59	0xbd0d7498	-0.03453502
60	0xbaf1f41c	-0.0018459591
61	0xbce04bcc	-0.027379893
62	0x3c45b641	0.0120673785
63	0xbc8dab97	-0.017293734
64	0xbd395444	-0.045246378
65	0xbcb35484	-0.021890886
66	0xbd4bd145	-0.04976012
67	0xbd65229a	-0.0559412
68	0xbc8a4472	-0.01687834
69	0xbd0781df	-0.03308284
70	0xbcea8baa	-0.02863105
71	0xbd077345	-0.033068914
72	0xbcb67dbc	-0.022276752
73	0xbd800f7b	-0.06252953
74	0xbd2c7eee	-0.042113237
75	0x3adc927d	0.0016828325
76	0xbcb0b287	-0.021569503
77	0xbc5d4e26	-0.013507402
78	0xbcab0625	-0.020876953
79	0xbd2cd880	-0.042198658
80	0xbd399445	-0.045307416
81	0xbcffdc3e	-0.03123295
82	0xbd63981d	-0.05556499
83	0xbca5a829	-0.020221787
84	0x3c35c595	0.0110944705
85	0xbd411ad3	-0.047144722
86	0xbd67f738	-0.05663225
87	0xbd624f66	-0.0552515
88	0x3b99b258	0.0046904497
89	0xbd40b37e	-0.047046177
90	0xbd4a6cbd	-0.049420107
91	0xbd8bd440	-0.06827593
92	0xbd56d207	-0.05244639
93	0xbc7f23ae	-0.015572472
94	0xbd73cdc9	-0.059522424
95	0xbd586ce8	-0.052838236
96	0xbde4743b	-0.11154982
97	0xbdcfe4b1	-0.10151041
98	0xbd8a260d	-0.06745539
99	0xbdc51575	-0.09623233
100	0xbda7c21b	-0.081913196
101	0xbd500d08	-0.050793678
102	0xbd860f0c	-0.06545839
103	0xbdb33ed1	-0.08752216
104	0xbd1b0d7a	-0.03785465
105	0xbd5c3aaf	-0.053766903
106	0xbc0748d2	-0.008257108
107	0xbbd594dc	-0.0065179896
108	0xbca1aa2c	-0.019734465
109	0xbcbc697b	-0.022999516
110	0xbce91ea2	-0.02845699
111	0xbbf7ed72	-0.0075661475
112	0xbc9c05ab	-0.019045671
113	0xbd1d597b	-0.038415413
114	0xbcfe0714	-0.031009234
115	0xbc9333ec	-0.017969094
116	0xbcd8dd0a	-0.026472587
117	0xbd0382c7	-0.03210714
118	0xbd2d3232	-0.042284198
119	0xbd5d3212	-0.05400283
120	0xbd2c5606	-0.042074226
121	0xbda166f4	-0.07880965
122	0xbd75f3ee	-0.060047083
123	0xbd834aa5	-0.06410722
124	0xbcb7b95d	-0.022427255
125	0xbd75da32	-0.06002254
126	0xbd88d7ee	-0.0668181
127	0xbd51500a	-0.05110172
128	0xbcdb00c9	-0.026733773
129	0xbd00f65a	-0.03148494
130	0xbd7205af	-0.05908745
131	0xbd6f017f	-0.058351036
132	0xbd1bfd25	-0.038083214
133	0xbc974932	-0.01846752
134	0x3ba4ff3b	0.0050353087
135	0x3cc011fa	0.023446072
136	0xbc82bc42	-0.015958909
137	0x3c034040	0.008010924
138	0xbd3899ae	-0.045068435
139	0x3a6ae177	0.00089599885
140	0x3be6de07	0.0070455107
141	0xbd23fee5	-0.04003801
142	0xbd383632	-0.04497356
143	0xbcd81861	-0.026378812
144	0x3b92b62a	0.004477282
145	0xbc22098b	-0.0098899705
146	0xbc55e4e9	-0.013055065
147	0xbd63cc9a	-0.055615045
148	0xbd18bf2d	-0.037291694
149	0xbc5f7507	-0.013638741
150	0xbd1b5bf4	-0.03792949
151	0xbcac3ce6	-0.021025132
152	0xbd0c4f81	-0.03425551
153	0xbd77665c	-0.060400352
154	0xbd08f241	-0.033434156
155	0xbd89d1fa	-0.06729503
156	0xbda6d637	-0.08146327
157	0xbd0c20c3	-0.03421093
158	0xbd9a5535	-0.07535783
159	0x3c0d7a64	0.008635137
160	0xbcec00c8	-0.028808966
161	0x3d526c40	0.051372766
162	0x3d6bb964	0.05754985
163	0x3d7c0991	0.06153256
164	0x3d113d2b	0.035458725
165	0x3c7f79bc	0.015592989
166	0x3c128da1	0.0089449
167	0x390ca451	0.00013412653
168	0x3a48ee5d	0.00076649134
169	0xbd1b6957	-0.037942257
170	0xbcc547bf	-0.024082063
171	0x3b099b66	0.0020997166
172	0xbd728f9f	-0.059219
173	0x3c3ccb57	0.011523089
174	0xbc3e4566	-0.011613226
175	0xbc3b37d5	-0.011426886
176	0x3c951f14	0.018203296
177	0x3ca5bacb	0.020230671
178	0xbd326881	-0.043556694
179	0xbd90a2b9	-0.07062287
180	0xbdbf9e52	-0.09356369
181	0xbda6a269	-0.08136446
182	0xbd957ff2	-0.07299794
183	0xbddb6ec8	-0.10714489
184	0xbd93dcfe	-0.07219885
185	0xbd8b552f	-0.06803357
186	0xbd215534	-0.039387897
187	0xbc99482b	-0.01871117
188	0x3d4da354	0.05020459
189	0x3d1440cf	0.03619462
190	0x3d9f1d8b	0.07769307
191	0x3de8222e	0.11334644
192	0x3d90aa16	0.07063691
193	0x3d6edca5	0.05831589
194	0xbce5c1c4	-0.028046496
195	0xbcf60a6e	-0.03003427
196	0xbd385413	-0.045002054
197	0xbc4263fa	-0.011864657
198	0xbd581232	-0.052751727
199	0xbcd5d2b7	-0.026101453
200	0xbd8f4815	-0.069961704
201	0xbabca3a7	-0.0014392034
202	0xbcf09598	-0.029368207
203	0x3c018646	0.007905548
204	0xbcce076d	-0.025150025
205	0xba13c507	-0.00056369643
206	0xbd2e6bb7	-0.042583194
207	0xbd9f03cc	-0.07764396
208	0xbd89fec3	-0.06738045
209	0xbd5721b3	-0.052522372
210	0xbde49061	-0.111603506
211	0xbdbbcea3	-0.09170272
212	0xbdeaec53	-0.114708565
213	0xbdc6491a	-0.09681912
214	0xbd0c5a9f	-0.03426611
215	0xbc9a0d6a	-0.018805224
216	0x3b80bc87	0.003928724
217	0x3dabdb2a	0.083914116
218	0x3dae9590	0.085246205
219	0x3d93018f	0.07178032
220	0x3dbdcf8a	0.092681006
221	0x3db83854	0.08995119
222	0xbc46a33d	-0.01212388
223	0xbcd128f2	-0.02553222
224	0xbd20af34	-0.039229587
225	0xbd518451	-0.051151577
226	0xbd495d0b	-0.049161
227	0x3c004d98	0.007831
228	0xbce2b5c2	-0.02767456
229	0xba8b6972	-0.0010636284
230	0x3d0cb4c0	0.034352064
231	0x3c92bbf0	0.017911881
232	0xbd089f74	-0.03335519
233	0xbc61e875	-0.013788332
234	0xbc99cec2	-0.018775348
235	0xbd595612	-0.0530606
236	0xbd2547e6	-0.04035177
237	0xbd9827f1	-0.07429493
238	0xbdafa232	-0.08575858
239	0xbd5055a0	-0.05086291
240	0xbda0fe49	-0.07861001
241	0xbcdc3662	-0.0268814
242	0x3ce948fb	0.028477183
243	0x3c61f337	0.013790897
244	0x3cf5bcce	0.029997256
245	0x3d02af3d	0.0319054
246	0x3d5acd40	0.053418398
247	0x3dec05c0	0.11524534
248	0x3dd48f0e	0.10378848
249	0x3dd9bd52	0.10631813
250	0xbb5f4c3c	-0.003407254
251	0xbd222105	-0.03958227
252	0x3c5618d3	0.013067442
253	0xbcc9f405	-0.02465249
254	0xbc759387	-0.014988787
255	0xbb5dc7c2	-0.0033840989

network.0.bias f4 [16]
0	0x3d3f2a65	0.04667129
1	0xbc9fa031	-0.019485565
2	0x3cf65d58	0.030073807
3	0x3cfec3de	0.031099256
4	0xbb773b71	-0.0037724639
5	0x3d0c3370	0.034228742
6	0xbbbc1f6e	-0.0057410514
7	0x3cad3d2e	0.021147337
8	0x3d19c2c5	0.037539262
9	0x3d86b2c1	0.06577063
10	0x3ce430e0	0.027855337
11	0x3d20b355	0.039233524
12	0xbc28a007	-0.01029206
13	0x3cfc3649	0.030787604
14	0x3c12d906	0.008962875
15	0x3cb5a956	0.022175472

network.2.weight f4 [10, 16]
0	0xbe9ddbb2	-0.30831677
1	0x3e18384f	0.1486523
2	0x3e08aaae	0.13346359
3	0xbe7af87b	-0.2450885
4	0xbe12b7ba	-0.14327899
5	0xbde37956	-0.11107127
6	0x3cb970c2	0.022636775
7	0x3cbc7f84	0.023010023
8	0xbec0acd7	-0.37631866
9	0xbb24ee50	-0.002516646
10	0x3e3bc63a	0.18337336
11	0x3e6d2ec0	0.23162365
12	0xbe9374aa	-0.28799945
13	0xbea21416	-0.3165595
14	0x3d7b19ad	0.061303783
15	0xbd8bae7b	-0.06820389
16	0x3e2d6ca8	0.1693598
17	0x3e0d6495	0.138079
18	0x3e895952	0.26825958
19	0xbde1e3bf	-0.11029767
20	0x3e0cca0f	0.13748954
21	0xbea892ca	-0.3292449
22	0xbe15bc46	-0.14622602
23	0xbdd01d33	-0.10161819
24	0xbe05a5a5	-0.1305147
25	0xbe5d5ea5	-0.21618135
26	0xbec2e239	-0.3806322
27	0x3d2ceb86	0.0422168
28	0x3e44d89b	0.19223253
29	0x3e44bd16	0.19212756
30	0x3e86f6d4	0.2636019
31	0xbdf94de3	-0.12173059
32	0xbd42ec2f	-0.047588523
33	0x3d0de8f8	0.034646004
34	0xbebf6f1b	-0.37389454
35	0xbdb9834a	-0.090582445
36	0x3d11a30a	0.035555877
37	0xbdfe0ca2	-0.12404753
38	0x3e97bcb9	0.2963617
39	0xbc8be80f	-0.017078428
40	0xbdd6db52	-0.10491051
41	0x3e214cd1	0.1575196
42	0xbea9f3f9	-0.3319395
43	0x3e626226	0.22107753
44	0x3c9425f1	0.018084498
45	0x3e3a659f	0.18202828
46	0xbe43bbcf	-0.19114612
47	0x3e85860e	0.26078838
48	0xbe8e20a5	-0.2775928
49	0x3d909716	0.07060067
50	0x3e360e5b	0.17778914
51	0xbe67522d	-0.22589941
52	0xbe009b8d	-0.12559338
53	0x3c995557	0.018717451
54	0xbde5182b	-0.1118625
55	0xbe8e59d9	-0.27802923
56	0x3e3984cc	0.18117064
57	0x3e9f46aa	0.311086
58	0xbe3f5f57	-0.18688713
59	0xbe6032be	-0.21894357
60	0xbe17f83e	-0.1484079
61	0xbdc4bdbc	-0.096065015
62	0x3e502f0c	0.20330447
63	0x3e813579	0.2523611
64	0x3e8fcb89	0.28084973
65	0xbe85ae51	-0.26109555
66	0xbe065962	-0.13120034
67	0x3e520e5b	0.20513289
68	0xbe5b80ee	-0.21435902
69	0x3e0acf0b	0.13555543
70	0xbed739a5	-0.42036167
71	0xbdd19929	-0.10234291
72	0xbd7d54d9	-0.061848495
73	0x3d33ee1e	0.043928258
74	0xbce9e10a	-0.02854969
75	0x3d88b9e5	0.066760816
76	0x3e170608	0.14748394
77	0xbe927448	-0.2860434
78	0xbe8ea87f	-0.27862927
79	0xbe9a9c62	-0.30197436
80	0x3e9be98f	0.3045163
81	0xbc08fe2e	-0.008361382
82	0x3c88db6f	0.016706197
83	0xbdbd11f9	-0.09231944
84	0x3d37e44c	0.044895455
85	0xbe0401dc	-0.12891334
86	0x3a9547b2	0.0011389165
87	0x3ebc3201	0.367569
88	0xbeadd954	-0.3395487
89	0x3e949ee6	0.2902748
90	0x3d9a6fba	0.075408414
91	0xbe77c8cf	-0.24197696
92	0xbebf801b	-0.37402424
93	0x3e86dec6	0.26341838
94	0xbdfbe6c4	-0.122998744
95	0xbdb8f699	-0.0903141
96	0xbe2584b4	-0.16163903
97	0xbe2c58d7	-0.16830765
98	0x3db77c65	0.08959273
99	0x3ea42be7	0.32064745
100	0x3d66a4a2	0.05630935
101	0xbc7363b9	-0.014855319
102	0xbebb56ab	-0.3658956
103	0x3e7dd177	0.24786936
104	0xbe918f95	-0.28429857
105	0xbe83ca25	-0.25740162
106	0xbe6d5426	-0.23176631
107	0x3ea4e459	0.32205465
108	0xbe782c5f	-0.24235676
109	0x3e9828d4	0.2971865
110	0xbe18e69c	-0.1493172
111	0x3e574a6a	0.2102448
112	0xbbc4ab01	-0.0060018306
113	0x3e87bd81	0.26511768
114	0x3e0a1f0d	0.13488407
115	0xbe45323d	-0.19257446
116	0x3ed14566	0.4087326
117	0x3e1142f2	0.14185694
118	0xbe234064	-0.15942532
119	0xbdee68a1	-0.1164105
120	0x3e5c2a95	0.21500619
121	0xbe8c4a21	-0.27400306
122	0x3e1c0a99	0.15238418
123	0xbe68b6db	-0.22726004
124	0xbda20b9d	-0.07912371
125	0x3d40a677	0.047033753
126	0xbe75f6a9	-0.24019875
127	0x3e4af281	0.1981907
128	0xbdc12a8b	-0.094319426
129	0xbcf4151f	-0.029795228
130	0xbe25e0f1	-0.1619909
131	0x3e47c18b	0.19507425
132	0xbe70535d	-0.234693
133	0xbe48e041	-0.19616796
134	0xbcf97b2d	-0.030454243
135	0xbe2c5d46	-0.16832456
136	0xbeca5f78	-0.39525962
137	0x3db616c4	0.08891061
138	0x3d4debe0	0.050273776
139	0xbea500bf	-0.32227132
140	0x3e2755cb	0.16341321
141	0x3def1f1f	0.11675858
142	0x3dc02aa4	0.09383133
143	0x3e253fba	0.16137591
144	0xbe04fc97	-0.1298698
145	0x3e92c648	0.28666902
146	0x3e968f34	0.2940613
147	0x3e839ab1	0.25703958
148	0xbe285e63	-0.16442256
149	0x3dfaed44	0.12252286
150	0x3e27ec48	0.16398728
151	0x3d80c551	0.06287635
152	0xbe1d65ee	-0.15370914
153	0x3acc5a80	0.0015590936
154	0xbe21dd6f	-0.15807126
155	0xbe4987d7	-0.19680725
156	0x3d510042	0.051025636
157	0x3d394947	0.0452359
158	0xbe9da2dd	-0.30788317
159	0xbebd9081	-0.3702431

network.2.bias f4 [10]
0	0xbe115b80	-0.1419506
1	0xbda7aac2	-0.08186866
2	0x3ddafc8a	0.10692699
3	0x3bbf99e5	0.005847203
4	0xbe0e081b	-0.1387028
5	0xbd32df4f	-0.043669995
6	0xbd599661	-0.053121928
7	0x3d98f95f	0.07469439
8	0x3cc8e1a3	0.024521654
9	0xbdd51dfa	-0.10406108
